Model: "sequential"
_________________________________________________________________
Layer (type)                 Output Shape              Param #   
=================================================================
conv2d (Conv2D)              (None, 32, 32, 32)        896       
_________________________________________________________________
conv2d_1 (Conv2D)            (None, 32, 32, 32)        9248      
_________________________________________________________________
max_pooling2d (MaxPooling2D) (None, 16, 16, 32)        0         
_________________________________________________________________
conv2d_2 (Conv2D)            (None, 16, 16, 64)        18496     
_________________________________________________________________
conv2d_3 (Conv2D)            (None, 16, 16, 64)        36928     
_________________________________________________________________
max_pooling2d_1 (MaxPooling2 (None, 8, 8, 64)          0         
_________________________________________________________________
conv2d_4 (Conv2D)            (None, 8, 8, 128)         73856     
_________________________________________________________________
conv2d_5 (Conv2D)            (None, 8, 8, 128)         147584    
_________________________________________________________________
max_pooling2d_2 (MaxPooling2 (None, 4, 4, 128)         0         
_________________________________________________________________
flatten (Flatten)            (None, 2048)              0         
_________________________________________________________________
dense (Dense)                (None, 128)               262272    
_________________________________________________________________
dense_1 (Dense)              (None, 10)                1290      
=================================================================
Total params: 550,570
Trainable params: 550,570
Non-trainable params: 0
_________________________________________________________________
Train on 50000 samples
Epoch 1/100
50000/50000 - 16s - loss: 1.7081 - accuracy: 0.3814
Epoch 2/100
50000/50000 - 15s - loss: 1.3760 - accuracy: 0.5071
Epoch 3/100
50000/50000 - 11s - loss: 1.2192 - accuracy: 0.5669
…
